…
 (base) mdrabiulhasan@MacBookPro car_damage_project % car_damage_env/bin/python 03_resnet50.py
Found 1074 images belonging to 3 classes.
Found 248 images belonging to 3 classes.
Found 277 images belonging to 3 classes.
Model: "functional"
┏━━━━━━━━━━━━━━━━━━━━━━━━━━━━━━━┳━━━━━━━━━━━━━━━━━━━━━━━━━━━┳━━━━━━━━━━━━━━━━━┳━━━━━━━━━━━━━━━━━━━━━━━━━━━━┓
┃ Layer (type)                  ┃ Output Shape              ┃         Param # ┃ Connected to               ┃
┡━━━━━━━━━━━━━━━━━━━━━━━━━━━━━━━╇━━━━━━━━━━━━━━━━━━━━━━━━━━━╇━━━━━━━━━━━━━━━━━╇━━━━━━━━━━━━━━━━━━━━━━━━━━━━┩
│ input_layer (InputLayer)      │ (None, 224, 224, 3)       │               0 │ -                          │
├───────────────────────────────┼───────────────────────────┼─────────────────┼────────────────────────────┤
│ conv1_pad (ZeroPadding2D)     │ (None, 230, 230, 3)       │               0 │ input_layer[0][0]          │
├───────────────────────────────┼───────────────────────────┼─────────────────┼────────────────────────────┤
│ conv1_conv (Conv2D)           │ (None, 112, 112, 64)      │           9,472 │ conv1_pad[0][0]            │
├───────────────────────────────┼───────────────────────────┼─────────────────┼────────────────────────────┤
│ conv1_bn (BatchNormalization) │ (None, 112, 112, 64)      │             256 │ conv1_conv[0][0]           │
├───────────────────────────────┼───────────────────────────┼─────────────────┼────────────────────────────┤
│ conv1_relu (Activation)       │ (None, 112, 112, 64)      │               0 │ conv1_bn[0][0]             │
├───────────────────────────────┼───────────────────────────┼─────────────────┼────────────────────────────┤
│ pool1_pad (ZeroPadding2D)     │ (None, 114, 114, 64)      │               0 │ conv1_relu[0][0]           │
├───────────────────────────────┼───────────────────────────┼─────────────────┼────────────────────────────┤
│ pool1_pool (MaxPooling2D)     │ (None, 56, 56, 64)        │               0 │ pool1_pad[0][0]            │
├───────────────────────────────┼───────────────────────────┼─────────────────┼────────────────────────────┤
│ conv2_block1_1_conv (Conv2D)  │ (None, 56, 56, 64)        │           4,160 │ pool1_pool[0][0]           │
├───────────────────────────────┼───────────────────────────┼─────────────────┼────────────────────────────┤
│ conv2_block1_1_bn             │ (None, 56, 56, 64)        │             256 │ conv2_block1_1_conv[0][0]  │
│ (BatchNormalization)          │                           │                 │                            │
├───────────────────────────────┼───────────────────────────┼─────────────────┼────────────────────────────┤
│ conv2_block1_1_relu           │ (None, 56, 56, 64)        │               0 │ conv2_block1_1_bn[0][0]    │
│ (Activation)                  │                           │                 │                            │
├───────────────────────────────┼───────────────────────────┼─────────────────┼────────────────────────────┤
│ conv2_block1_2_conv (Conv2D)  │ (None, 56, 56, 64)        │          36,928 │ conv2_block1_1_relu[0][0]  │
├───────────────────────────────┼───────────────────────────┼─────────────────┼────────────────────────────┤
│ conv2_block1_2_bn             │ (None, 56, 56, 64)        │             256 │ conv2_block1_2_conv[0][0]  │
│ (BatchNormalization)          │                           │                 │                            │
├───────────────────────────────┼───────────────────────────┼─────────────────┼────────────────────────────┤
│ conv2_block1_2_relu           │ (None, 56, 56, 64)        │               0 │ conv2_block1_2_bn[0][0]    │
│ (Activation)                  │                           │                 │                            │
├───────────────────────────────┼───────────────────────────┼─────────────────┼────────────────────────────┤
│ conv2_block1_0_conv (Conv2D)  │ (None, 56, 56, 256)       │          16,640 │ pool1_pool[0][0]           │
├───────────────────────────────┼───────────────────────────┼─────────────────┼────────────────────────────┤
│ conv2_block1_3_conv (Conv2D)  │ (None, 56, 56, 256)       │          16,640 │ conv2_block1_2_relu[0][0]  │
├───────────────────────────────┼───────────────────────────┼─────────────────┼────────────────────────────┤
│ conv2_block1_0_bn             │ (None, 56, 56, 256)       │           1,024 │ conv2_block1_0_conv[0][0]  │
│ (BatchNormalization)          │                           │                 │                            │
├───────────────────────────────┼───────────────────────────┼─────────────────┼────────────────────────────┤
│ conv2_block1_3_bn             │ (None, 56, 56, 256)       │           1,024 │ conv2_block1_3_conv[0][0]  │
│ (BatchNormalization)          │                           │                 │                            │
├───────────────────────────────┼───────────────────────────┼─────────────────┼────────────────────────────┤
│ conv2_block1_add (Add)        │ (None, 56, 56, 256)       │               0 │ conv2_block1_0_bn[0][0],   │
│                               │                           │                 │ conv2_block1_3_bn[0][0]    │
├───────────────────────────────┼───────────────────────────┼─────────────────┼────────────────────────────┤
│ conv2_block1_out (Activation) │ (None, 56, 56, 256)       │               0 │ conv2_block1_add[0][0]     │
├───────────────────────────────┼───────────────────────────┼─────────────────┼────────────────────────────┤
│ conv2_block2_1_conv (Conv2D)  │ (None, 56, 56, 64)        │          16,448 │ conv2_block1_out[0][0]     │
├───────────────────────────────┼───────────────────────────┼─────────────────┼────────────────────────────┤
│ conv2_block2_1_bn             │ (None, 56, 56, 64)        │             256 │ conv2_block2_1_conv[0][0]  │
│ (BatchNormalization)          │                           │                 │                            │
├───────────────────────────────┼───────────────────────────┼─────────────────┼────────────────────────────┤
│ conv2_block2_1_relu           │ (None, 56, 56, 64)        │               0 │ conv2_block2_1_bn[0][0]    │
│ (Activation)                  │                           │                 │                            │
├───────────────────────────────┼───────────────────────────┼─────────────────┼────────────────────────────┤
│ conv2_block2_2_conv (Conv2D)  │ (None, 56, 56, 64)        │          36,928 │ conv2_block2_1_relu[0][0]  │
├───────────────────────────────┼───────────────────────────┼─────────────────┼────────────────────────────┤
│ conv2_block2_2_bn             │ (None, 56, 56, 64)        │             256 │ conv2_block2_2_conv[0][0]  │
│ (BatchNormalization)          │                           │                 │                            │
├───────────────────────────────┼───────────────────────────┼─────────────────┼────────────────────────────┤
│ conv2_block2_2_relu           │ (None, 56, 56, 64)        │               0 │ conv2_block2_2_bn[0][0]    │
│ (Activation)                  │                           │                 │                            │
├───────────────────────────────┼───────────────────────────┼─────────────────┼────────────────────────────┤
│ conv2_block2_3_conv (Conv2D)  │ (None, 56, 56, 256)       │          16,640 │ conv2_block2_2_relu[0][0]  │
├───────────────────────────────┼───────────────────────────┼─────────────────┼────────────────────────────┤
│ conv2_block2_3_bn             │ (None, 56, 56, 256)       │           1,024 │ conv2_block2_3_conv[0][0]  │
│ (BatchNormalization)          │                           │                 │                            │
├───────────────────────────────┼───────────────────────────┼─────────────────┼────────────────────────────┤
│ conv2_block2_add (Add)        │ (None, 56, 56, 256)       │               0 │ conv2_block1_out[0][0],    │
│                               │                           │                 │ conv2_block2_3_bn[0][0]    │
├───────────────────────────────┼───────────────────────────┼─────────────────┼────────────────────────────┤
│ conv2_block2_out (Activation) │ (None, 56, 56, 256)       │               0 │ conv2_block2_add[0][0]     │
├───────────────────────────────┼───────────────────────────┼─────────────────┼────────────────────────────┤
│ conv2_block3_1_conv (Conv2D)  │ (None, 56, 56, 64)        │          16,448 │ conv2_block2_out[0][0]     │
├───────────────────────────────┼───────────────────────────┼─────────────────┼────────────────────────────┤
│ conv2_block3_1_bn             │ (None, 56, 56, 64)        │             256 │ conv2_block3_1_conv[0][0]  │
│ (BatchNormalization)          │                           │                 │                            │
├───────────────────────────────┼───────────────────────────┼─────────────────┼────────────────────────────┤
│ conv2_block3_1_relu           │ (None, 56, 56, 64)        │               0 │ conv2_block3_1_bn[0][0]    │
│ (Activation)                  │                           │                 │                            │
├───────────────────────────────┼───────────────────────────┼─────────────────┼────────────────────────────┤
│ conv2_block3_2_conv (Conv2D)  │ (None, 56, 56, 64)        │          36,928 │ conv2_block3_1_relu[0][0]  │
├───────────────────────────────┼───────────────────────────┼─────────────────┼────────────────────────────┤
│ conv2_block3_2_bn             │ (None, 56, 56, 64)        │             256 │ conv2_block3_2_conv[0][0]  │
│ (BatchNormalization)          │                           │                 │                            │
├───────────────────────────────┼───────────────────────────┼─────────────────┼────────────────────────────┤
│ conv2_block3_2_relu           │ (None, 56, 56, 64)        │               0 │ conv2_block3_2_bn[0][0]    │
│ (Activation)                  │                           │                 │                            │
├───────────────────────────────┼───────────────────────────┼─────────────────┼────────────────────────────┤
│ conv2_block3_3_conv (Conv2D)  │ (None, 56, 56, 256)       │          16,640 │ conv2_block3_2_relu[0][0]  │
├───────────────────────────────┼───────────────────────────┼─────────────────┼────────────────────────────┤
│ conv2_block3_3_bn             │ (None, 56, 56, 256)       │           1,024 │ conv2_block3_3_conv[0][0]  │
│ (BatchNormalization)          │                           │                 │                            │
├───────────────────────────────┼───────────────────────────┼─────────────────┼────────────────────────────┤
│ conv2_block3_add (Add)        │ (None, 56, 56, 256)       │               0 │ conv2_block2_out[0][0],    │
│                               │                           │                 │ conv2_block3_3_bn[0][0]    │
├───────────────────────────────┼───────────────────────────┼─────────────────┼────────────────────────────┤
│ conv2_block3_out (Activation) │ (None, 56, 56, 256)       │               0 │ conv2_block3_add[0][0]     │
├───────────────────────────────┼───────────────────────────┼─────────────────┼────────────────────────────┤
│ conv3_block1_1_conv (Conv2D)  │ (None, 28, 28, 128)       │          32,896 │ conv2_block3_out[0][0]     │
├───────────────────────────────┼───────────────────────────┼─────────────────┼────────────────────────────┤
│ conv3_block1_1_bn             │ (None, 28, 28, 128)       │             512 │ conv3_block1_1_conv[0][0]  │
│ (BatchNormalization)          │                           │                 │                            │
├───────────────────────────────┼───────────────────────────┼─────────────────┼────────────────────────────┤
│ conv3_block1_1_relu           │ (None, 28, 28, 128)       │               0 │ conv3_block1_1_bn[0][0]    │
│ (Activation)                  │                           │                 │                            │
├───────────────────────────────┼───────────────────────────┼─────────────────┼────────────────────────────┤
│ conv3_block1_2_conv (Conv2D)  │ (None, 28, 28, 128)       │         147,584 │ conv3_block1_1_relu[0][0]  │
├───────────────────────────────┼───────────────────────────┼─────────────────┼────────────────────────────┤
│ conv3_block1_2_bn             │ (None, 28, 28, 128)       │             512 │ conv3_block1_2_conv[0][0]  │
│ (BatchNormalization)          │                           │                 │                            │
├───────────────────────────────┼───────────────────────────┼─────────────────┼────────────────────────────┤
│ conv3_block1_2_relu           │ (None, 28, 28, 128)       │               0 │ conv3_block1_2_bn[0][0]    │
│ (Activation)                  │                           │                 │                            │
├───────────────────────────────┼───────────────────────────┼─────────────────┼────────────────────────────┤
│ conv3_block1_0_conv (Conv2D)  │ (None, 28, 28, 512)       │         131,584 │ conv2_block3_out[0][0]     │
├───────────────────────────────┼───────────────────────────┼─────────────────┼────────────────────────────┤
│ conv3_block1_3_conv (Conv2D)  │ (None, 28, 28, 512)       │          66,048 │ conv3_block1_2_relu[0][0]  │
├───────────────────────────────┼───────────────────────────┼─────────────────┼────────────────────────────┤
│ conv3_block1_0_bn             │ (None, 28, 28, 512)       │           2,048 │ conv3_block1_0_conv[0][0]  │
│ (BatchNormalization)          │                           │                 │                            │
├───────────────────────────────┼───────────────────────────┼─────────────────┼────────────────────────────┤
│ conv3_block1_3_bn             │ (None, 28, 28, 512)       │           2,048 │ conv3_block1_3_conv[0][0]  │
│ (BatchNormalization)          │                           │                 │                            │
├───────────────────────────────┼───────────────────────────┼─────────────────┼────────────────────────────┤
│ conv3_block1_add (Add)        │ (None, 28, 28, 512)       │               0 │ conv3_block1_0_bn[0][0],   │
│                               │                           │                 │ conv3_block1_3_bn[0][0]    │
├───────────────────────────────┼───────────────────────────┼─────────────────┼────────────────────────────┤
│ conv3_block1_out (Activation) │ (None, 28, 28, 512)       │               0 │ conv3_block1_add[0][0]     │
├───────────────────────────────┼───────────────────────────┼─────────────────┼────────────────────────────┤
│ conv3_block2_1_conv (Conv2D)  │ (None, 28, 28, 128)       │          65,664 │ conv3_block1_out[0][0]     │
├───────────────────────────────┼───────────────────────────┼─────────────────┼────────────────────────────┤
│ conv3_block2_1_bn             │ (None, 28, 28, 128)       │             512 │ conv3_block2_1_conv[0][0]  │
│ (BatchNormalization)          │                           │                 │                            │
├───────────────────────────────┼───────────────────────────┼─────────────────┼────────────────────────────┤
│ conv3_block2_1_relu           │ (None, 28, 28, 128)       │               0 │ conv3_block2_1_bn[0][0]    │
│ (Activation)                  │                           │                 │                            │
├───────────────────────────────┼───────────────────────────┼─────────────────┼────────────────────────────┤
│ conv3_block2_2_conv (Conv2D)  │ (None, 28, 28, 128)       │         147,584 │ conv3_block2_1_relu[0][0]  │
├───────────────────────────────┼───────────────────────────┼─────────────────┼────────────────────────────┤
│ conv3_block2_2_bn             │ (None, 28, 28, 128)       │             512 │ conv3_block2_2_conv[0][0]  │
│ (BatchNormalization)          │                           │                 │                            │
├───────────────────────────────┼───────────────────────────┼─────────────────┼────────────────────────────┤
│ conv3_block2_2_relu           │ (None, 28, 28, 128)       │               0 │ conv3_block2_2_bn[0][0]    │
│ (Activation)                  │                           │                 │                            │
├───────────────────────────────┼───────────────────────────┼─────────────────┼────────────────────────────┤
│ conv3_block2_3_conv (Conv2D)  │ (None, 28, 28, 512)       │          66,048 │ conv3_block2_2_relu[0][0]  │
├───────────────────────────────┼───────────────────────────┼─────────────────┼────────────────────────────┤
│ conv3_block2_3_bn             │ (None, 28, 28, 512)       │           2,048 │ conv3_block2_3_conv[0][0]  │
│ (BatchNormalization)          │                           │                 │                            │
├───────────────────────────────┼───────────────────────────┼─────────────────┼────────────────────────────┤
│ conv3_block2_add (Add)        │ (None, 28, 28, 512)       │               0 │ conv3_block1_out[0][0],    │
│                               │                           │                 │ conv3_block2_3_bn[0][0]    │
├───────────────────────────────┼───────────────────────────┼─────────────────┼────────────────────────────┤
│ conv3_block2_out (Activation) │ (None, 28, 28, 512)       │               0 │ conv3_block2_add[0][0]     │
├───────────────────────────────┼───────────────────────────┼─────────────────┼────────────────────────────┤
│ conv3_block3_1_conv (Conv2D)  │ (None, 28, 28, 128)       │          65,664 │ conv3_block2_out[0][0]     │
├───────────────────────────────┼───────────────────────────┼─────────────────┼────────────────────────────┤
│ conv3_block3_1_bn             │ (None, 28, 28, 128)       │             512 │ conv3_block3_1_conv[0][0]  │
│ (BatchNormalization)          │                           │                 │                            │
├───────────────────────────────┼───────────────────────────┼─────────────────┼────────────────────────────┤
│ conv3_block3_1_relu           │ (None, 28, 28, 128)       │               0 │ conv3_block3_1_bn[0][0]    │
│ (Activation)                  │                           │                 │                            │
├───────────────────────────────┼───────────────────────────┼─────────────────┼────────────────────────────┤
│ conv3_block3_2_conv (Conv2D)  │ (None, 28, 28, 128)       │         147,584 │ conv3_block3_1_relu[0][0]  │
├───────────────────────────────┼───────────────────────────┼─────────────────┼────────────────────────────┤
│ conv3_block3_2_bn             │ (None, 28, 28, 128)       │             512 │ conv3_block3_2_conv[0][0]  │
│ (BatchNormalization)          │                           │                 │                            │
├───────────────────────────────┼───────────────────────────┼─────────────────┼────────────────────────────┤
│ conv3_block3_2_relu           │ (None, 28, 28, 128)       │               0 │ conv3_block3_2_bn[0][0]    │
│ (Activation)                  │                           │                 │                            │
├───────────────────────────────┼───────────────────────────┼─────────────────┼────────────────────────────┤
│ conv3_block3_3_conv (Conv2D)  │ (None, 28, 28, 512)       │          66,048 │ conv3_block3_2_relu[0][0]  │
├───────────────────────────────┼───────────────────────────┼─────────────────┼────────────────────────────┤
│ conv3_block3_3_bn             │ (None, 28, 28, 512)       │           2,048 │ conv3_block3_3_conv[0][0]  │
│ (BatchNormalization)          │                           │                 │                            │
├───────────────────────────────┼───────────────────────────┼─────────────────┼────────────────────────────┤
│ conv3_block3_add (Add)        │ (None, 28, 28, 512)       │               0 │ conv3_block2_out[0][0],    │
│                               │                           │                 │ conv3_block3_3_bn[0][0]    │
├───────────────────────────────┼───────────────────────────┼─────────────────┼────────────────────────────┤
│ conv3_block3_out (Activation) │ (None, 28, 28, 512)       │               0 │ conv3_block3_add[0][0]     │
├───────────────────────────────┼───────────────────────────┼─────────────────┼────────────────────────────┤
│ conv3_block4_1_conv (Conv2D)  │ (None, 28, 28, 128)       │          65,664 │ conv3_block3_out[0][0]     │
├───────────────────────────────┼───────────────────────────┼─────────────────┼────────────────────────────┤
│ conv3_block4_1_bn             │ (None, 28, 28, 128)       │             512 │ conv3_block4_1_conv[0][0]  │
│ (BatchNormalization)          │                           │                 │                            │
├───────────────────────────────┼───────────────────────────┼─────────────────┼────────────────────────────┤
│ conv3_block4_1_relu           │ (None, 28, 28, 128)       │               0 │ conv3_block4_1_bn[0][0]    │
│ (Activation)                  │                           │                 │                            │
├───────────────────────────────┼───────────────────────────┼─────────────────┼────────────────────────────┤
│ conv3_block4_2_conv (Conv2D)  │ (None, 28, 28, 128)       │         147,584 │ conv3_block4_1_relu[0][0]  │
├───────────────────────────────┼───────────────────────────┼─────────────────┼────────────────────────────┤
│ conv3_block4_2_bn             │ (None, 28, 28, 128)       │             512 │ conv3_block4_2_conv[0][0]  │
│ (BatchNormalization)          │                           │                 │                            │
├───────────────────────────────┼───────────────────────────┼─────────────────┼────────────────────────────┤
│ conv3_block4_2_relu           │ (None, 28, 28, 128)       │               0 │ conv3_block4_2_bn[0][0]    │
│ (Activation)                  │                           │                 │                            │
├───────────────────────────────┼───────────────────────────┼─────────────────┼────────────────────────────┤
│ conv3_block4_3_conv (Conv2D)  │ (None, 28, 28, 512)       │          66,048 │ conv3_block4_2_relu[0][0]  │
├───────────────────────────────┼───────────────────────────┼─────────────────┼────────────────────────────┤
│ conv3_block4_3_bn             │ (None, 28, 28, 512)       │           2,048 │ conv3_block4_3_conv[0][0]  │
│ (BatchNormalization)          │                           │                 │                            │
├───────────────────────────────┼───────────────────────────┼─────────────────┼────────────────────────────┤
│ conv3_block4_add (Add)        │ (None, 28, 28, 512)       │               0 │ conv3_block3_out[0][0],    │
│                               │                           │                 │ conv3_block4_3_bn[0][0]    │
├───────────────────────────────┼───────────────────────────┼─────────────────┼────────────────────────────┤
│ conv3_block4_out (Activation) │ (None, 28, 28, 512)       │               0 │ conv3_block4_add[0][0]     │
├───────────────────────────────┼───────────────────────────┼─────────────────┼────────────────────────────┤
│ conv4_block1_1_conv (Conv2D)  │ (None, 14, 14, 256)       │         131,328 │ conv3_block4_out[0][0]     │
├───────────────────────────────┼───────────────────────────┼─────────────────┼────────────────────────────┤
│ conv4_block1_1_bn             │ (None, 14, 14, 256)       │           1,024 │ conv4_block1_1_conv[0][0]  │
│ (BatchNormalization)          │                           │                 │                            │
├───────────────────────────────┼───────────────────────────┼─────────────────┼────────────────────────────┤
│ conv4_block1_1_relu           │ (None, 14, 14, 256)       │               0 │ conv4_block1_1_bn[0][0]    │
│ (Activation)                  │                           │                 │                            │
├───────────────────────────────┼───────────────────────────┼─────────────────┼────────────────────────────┤
│ conv4_block1_2_conv (Conv2D)  │ (None, 14, 14, 256)       │         590,080 │ conv4_block1_1_relu[0][0]  │
├───────────────────────────────┼───────────────────────────┼─────────────────┼────────────────────────────┤
│ conv4_block1_2_bn             │ (None, 14, 14, 256)       │           1,024 │ conv4_block1_2_conv[0][0]  │
│ (BatchNormalization)          │                           │                 │                            │
├───────────────────────────────┼───────────────────────────┼─────────────────┼────────────────────────────┤
│ conv4_block1_2_relu           │ (None, 14, 14, 256)       │               0 │ conv4_block1_2_bn[0][0]    │
│ (Activation)                  │                           │                 │                            │
├───────────────────────────────┼───────────────────────────┼─────────────────┼────────────────────────────┤
│ conv4_block1_0_conv (Conv2D)  │ (None, 14, 14, 1024)      │         525,312 │ conv3_block4_out[0][0]     │
├───────────────────────────────┼───────────────────────────┼─────────────────┼────────────────────────────┤
│ conv4_block1_3_conv (Conv2D)  │ (None, 14, 14, 1024)      │         263,168 │ conv4_block1_2_relu[0][0]  │
├───────────────────────────────┼───────────────────────────┼─────────────────┼────────────────────────────┤
│ conv4_block1_0_bn             │ (None, 14, 14, 1024)      │           4,096 │ conv4_block1_0_conv[0][0]  │
│ (BatchNormalization)          │                           │                 │                            │
├───────────────────────────────┼───────────────────────────┼─────────────────┼────────────────────────────┤
│ conv4_block1_3_bn             │ (None, 14, 14, 1024)      │           4,096 │ conv4_block1_3_conv[0][0]  │
│ (BatchNormalization)          │                           │                 │                            │
├───────────────────────────────┼───────────────────────────┼─────────────────┼────────────────────────────┤
│ conv4_block1_add (Add)        │ (None, 14, 14, 1024)      │               0 │ conv4_block1_0_bn[0][0],   │
│                               │                           │                 │ conv4_block1_3_bn[0][0]    │
├───────────────────────────────┼───────────────────────────┼─────────────────┼────────────────────────────┤
│ conv4_block1_out (Activation) │ (None, 14, 14, 1024)      │               0 │ conv4_block1_add[0][0]     │
├───────────────────────────────┼───────────────────────────┼─────────────────┼────────────────────────────┤
│ conv4_block2_1_conv (Conv2D)  │ (None, 14, 14, 256)       │         262,400 │ conv4_block1_out[0][0]     │
├───────────────────────────────┼───────────────────────────┼─────────────────┼────────────────────────────┤
│ conv4_block2_1_bn             │ (None, 14, 14, 256)       │           1,024 │ conv4_block2_1_conv[0][0]  │
│ (BatchNormalization)          │                           │                 │                            │
├───────────────────────────────┼───────────────────────────┼─────────────────┼────────────────────────────┤
│ conv4_block2_1_relu           │ (None, 14, 14, 256)       │               0 │ conv4_block2_1_bn[0][0]    │
│ (Activation)                  │                           │                 │                            │
├───────────────────────────────┼───────────────────────────┼─────────────────┼────────────────────────────┤
│ conv4_block2_2_conv (Conv2D)  │ (None, 14, 14, 256)       │         590,080 │ conv4_block2_1_relu[0][0]  │
├───────────────────────────────┼───────────────────────────┼─────────────────┼────────────────────────────┤
│ conv4_block2_2_bn             │ (None, 14, 14, 256)       │           1,024 │ conv4_block2_2_conv[0][0]  │
│ (BatchNormalization)          │                           │                 │                            │
├───────────────────────────────┼───────────────────────────┼─────────────────┼────────────────────────────┤
│ conv4_block2_2_relu           │ (None, 14, 14, 256)       │               0 │ conv4_block2_2_bn[0][0]    │
│ (Activation)                  │                           │                 │                            │
├───────────────────────────────┼───────────────────────────┼─────────────────┼────────────────────────────┤
│ conv4_block2_3_conv (Conv2D)  │ (None, 14, 14, 1024)      │         263,168 │ conv4_block2_2_relu[0][0]  │
├───────────────────────────────┼───────────────────────────┼─────────────────┼────────────────────────────┤
│ conv4_block2_3_bn             │ (None, 14, 14, 1024)      │           4,096 │ conv4_block2_3_conv[0][0]  │
│ (BatchNormalization)          │                           │                 │                            │
├───────────────────────────────┼───────────────────────────┼─────────────────┼────────────────────────────┤
│ conv4_block2_add (Add)        │ (None, 14, 14, 1024)      │               0 │ conv4_block1_out[0][0],    │
│                               │                           │                 │ conv4_block2_3_bn[0][0]    │
├───────────────────────────────┼───────────────────────────┼─────────────────┼────────────────────────────┤
│ conv4_block2_out (Activation) │ (None, 14, 14, 1024)      │               0 │ conv4_block2_add[0][0]     │
├───────────────────────────────┼───────────────────────────┼─────────────────┼────────────────────────────┤
│ conv4_block3_1_conv (Conv2D)  │ (None, 14, 14, 256)       │         262,400 │ conv4_block2_out[0][0]     │
├───────────────────────────────┼───────────────────────────┼─────────────────┼────────────────────────────┤
│ conv4_block3_1_bn             │ (None, 14, 14, 256)       │           1,024 │ conv4_block3_1_conv[0][0]  │
│ (BatchNormalization)          │                           │                 │                            │
├───────────────────────────────┼───────────────────────────┼─────────────────┼────────────────────────────┤
│ conv4_block3_1_relu           │ (None, 14, 14, 256)       │               0 │ conv4_block3_1_bn[0][0]    │
│ (Activation)                  │                           │                 │                            │
├───────────────────────────────┼───────────────────────────┼─────────────────┼────────────────────────────┤
│ conv4_block3_2_conv (Conv2D)  │ (None, 14, 14, 256)       │         590,080 │ conv4_block3_1_relu[0][0]  │
├───────────────────────────────┼───────────────────────────┼─────────────────┼────────────────────────────┤
│ conv4_block3_2_bn             │ (None, 14, 14, 256)       │           1,024 │ conv4_block3_2_conv[0][0]  │
│ (BatchNormalization)          │                           │                 │                            │
├───────────────────────────────┼───────────────────────────┼─────────────────┼────────────────────────────┤
│ conv4_block3_2_relu           │ (None, 14, 14, 256)       │               0 │ conv4_block3_2_bn[0][0]    │
│ (Activation)                  │                           │                 │                            │
├───────────────────────────────┼───────────────────────────┼─────────────────┼────────────────────────────┤
│ conv4_block3_3_conv (Conv2D)  │ (None, 14, 14, 1024)      │         263,168 │ conv4_block3_2_relu[0][0]  │
├───────────────────────────────┼───────────────────────────┼─────────────────┼────────────────────────────┤
│ conv4_block3_3_bn             │ (None, 14, 14, 1024)      │           4,096 │ conv4_block3_3_conv[0][0]  │
│ (BatchNormalization)          │                           │                 │                            │
├───────────────────────────────┼───────────────────────────┼─────────────────┼────────────────────────────┤
│ conv4_block3_add (Add)        │ (None, 14, 14, 1024)      │               0 │ conv4_block2_out[0][0],    │
│                               │                           │                 │ conv4_block3_3_bn[0][0]    │
├───────────────────────────────┼───────────────────────────┼─────────────────┼────────────────────────────┤
│ conv4_block3_out (Activation) │ (None, 14, 14, 1024)      │               0 │ conv4_block3_add[0][0]     │
├───────────────────────────────┼───────────────────────────┼─────────────────┼────────────────────────────┤
│ conv4_block4_1_conv (Conv2D)  │ (None, 14, 14, 256)       │         262,400 │ conv4_block3_out[0][0]     │
├───────────────────────────────┼───────────────────────────┼─────────────────┼────────────────────────────┤
│ conv4_block4_1_bn             │ (None, 14, 14, 256)       │           1,024 │ conv4_block4_1_conv[0][0]  │
│ (BatchNormalization)          │                           │                 │                            │
├───────────────────────────────┼───────────────────────────┼─────────────────┼────────────────────────────┤
│ conv4_block4_1_relu           │ (None, 14, 14, 256)       │               0 │ conv4_block4_1_bn[0][0]    │
│ (Activation)                  │                           │                 │                            │
├───────────────────────────────┼───────────────────────────┼─────────────────┼────────────────────────────┤
│ conv4_block4_2_conv (Conv2D)  │ (None, 14, 14, 256)       │         590,080 │ conv4_block4_1_relu[0][0]  │
├───────────────────────────────┼───────────────────────────┼─────────────────┼────────────────────────────┤
│ conv4_block4_2_bn             │ (None, 14, 14, 256)       │           1,024 │ conv4_block4_2_conv[0][0]  │
│ (BatchNormalization)          │                           │                 │                            │
├───────────────────────────────┼───────────────────────────┼─────────────────┼────────────────────────────┤
│ conv4_block4_2_relu           │ (None, 14, 14, 256)       │               0 │ conv4_block4_2_bn[0][0]    │
│ (Activation)                  │                           │                 │                            │
├───────────────────────────────┼───────────────────────────┼─────────────────┼────────────────────────────┤
│ conv4_block4_3_conv (Conv2D)  │ (None, 14, 14, 1024)      │         263,168 │ conv4_block4_2_relu[0][0]  │
├───────────────────────────────┼───────────────────────────┼─────────────────┼────────────────────────────┤
│ conv4_block4_3_bn             │ (None, 14, 14, 1024)      │           4,096 │ conv4_block4_3_conv[0][0]  │
│ (BatchNormalization)          │                           │                 │                            │
├───────────────────────────────┼───────────────────────────┼─────────────────┼────────────────────────────┤
│ conv4_block4_add (Add)        │ (None, 14, 14, 1024)      │               0 │ conv4_block3_out[0][0],    │
│                               │                           │                 │ conv4_block4_3_bn[0][0]    │
├───────────────────────────────┼───────────────────────────┼─────────────────┼────────────────────────────┤
│ conv4_block4_out (Activation) │ (None, 14, 14, 1024)      │               0 │ conv4_block4_add[0][0]     │
├───────────────────────────────┼───────────────────────────┼─────────────────┼────────────────────────────┤
│ conv4_block5_1_conv (Conv2D)  │ (None, 14, 14, 256)       │         262,400 │ conv4_block4_out[0][0]     │
├───────────────────────────────┼───────────────────────────┼─────────────────┼────────────────────────────┤
│ conv4_block5_1_bn             │ (None, 14, 14, 256)       │           1,024 │ conv4_block5_1_conv[0][0]  │
│ (BatchNormalization)          │                           │                 │                            │
├───────────────────────────────┼───────────────────────────┼─────────────────┼────────────────────────────┤
│ conv4_block5_1_relu           │ (None, 14, 14, 256)       │               0 │ conv4_block5_1_bn[0][0]    │
│ (Activation)                  │                           │                 │                            │
├───────────────────────────────┼───────────────────────────┼─────────────────┼────────────────────────────┤
│ conv4_block5_2_conv (Conv2D)  │ (None, 14, 14, 256)       │         590,080 │ conv4_block5_1_relu[0][0]  │
├───────────────────────────────┼───────────────────────────┼─────────────────┼────────────────────────────┤
│ conv4_block5_2_bn             │ (None, 14, 14, 256)       │           1,024 │ conv4_block5_2_conv[0][0]  │
│ (BatchNormalization)          │                           │                 │                            │
├───────────────────────────────┼───────────────────────────┼─────────────────┼────────────────────────────┤
│ conv4_block5_2_relu           │ (None, 14, 14, 256)       │               0 │ conv4_block5_2_bn[0][0]    │
│ (Activation)                  │                           │                 │                            │
├───────────────────────────────┼───────────────────────────┼─────────────────┼────────────────────────────┤
│ conv4_block5_3_conv (Conv2D)  │ (None, 14, 14, 1024)      │         263,168 │ conv4_block5_2_relu[0][0]  │
├───────────────────────────────┼───────────────────────────┼─────────────────┼────────────────────────────┤
│ conv4_block5_3_bn             │ (None, 14, 14, 1024)      │           4,096 │ conv4_block5_3_conv[0][0]  │
│ (BatchNormalization)          │                           │                 │                            │
├───────────────────────────────┼───────────────────────────┼─────────────────┼────────────────────────────┤
│ conv4_block5_add (Add)        │ (None, 14, 14, 1024)      │               0 │ conv4_block4_out[0][0],    │
│                               │                           │                 │ conv4_block5_3_bn[0][0]    │
├───────────────────────────────┼───────────────────────────┼─────────────────┼────────────────────────────┤
│ conv4_block5_out (Activation) │ (None, 14, 14, 1024)      │               0 │ conv4_block5_add[0][0]     │
├───────────────────────────────┼───────────────────────────┼─────────────────┼────────────────────────────┤
│ conv4_block6_1_conv (Conv2D)  │ (None, 14, 14, 256)       │         262,400 │ conv4_block5_out[0][0]     │
├───────────────────────────────┼───────────────────────────┼─────────────────┼────────────────────────────┤
│ conv4_block6_1_bn             │ (None, 14, 14, 256)       │           1,024 │ conv4_block6_1_conv[0][0]  │
│ (BatchNormalization)          │                           │                 │                            │
├───────────────────────────────┼───────────────────────────┼─────────────────┼────────────────────────────┤
│ conv4_block6_1_relu           │ (None, 14, 14, 256)       │               0 │ conv4_block6_1_bn[0][0]    │
│ (Activation)                  │                           │                 │                            │
├───────────────────────────────┼───────────────────────────┼─────────────────┼────────────────────────────┤
│ conv4_block6_2_conv (Conv2D)  │ (None, 14, 14, 256)       │         590,080 │ conv4_block6_1_relu[0][0]  │
├───────────────────────────────┼───────────────────────────┼─────────────────┼────────────────────────────┤
│ conv4_block6_2_bn             │ (None, 14, 14, 256)       │           1,024 │ conv4_block6_2_conv[0][0]  │
│ (BatchNormalization)          │                           │                 │                            │
├───────────────────────────────┼───────────────────────────┼─────────────────┼────────────────────────────┤
│ conv4_block6_2_relu           │ (None, 14, 14, 256)       │               0 │ conv4_block6_2_bn[0][0]    │
│ (Activation)                  │                           │                 │                            │
├───────────────────────────────┼───────────────────────────┼─────────────────┼────────────────────────────┤
│ conv4_block6_3_conv (Conv2D)  │ (None, 14, 14, 1024)      │         263,168 │ conv4_block6_2_relu[0][0]  │
├───────────────────────────────┼───────────────────────────┼─────────────────┼────────────────────────────┤
│ conv4_block6_3_bn             │ (None, 14, 14, 1024)      │           4,096 │ conv4_block6_3_conv[0][0]  │
│ (BatchNormalization)          │                           │                 │                            │
├───────────────────────────────┼───────────────────────────┼─────────────────┼────────────────────────────┤
│ conv4_block6_add (Add)        │ (None, 14, 14, 1024)      │               0 │ conv4_block5_out[0][0],    │
│                               │                           │                 │ conv4_block6_3_bn[0][0]    │
├───────────────────────────────┼───────────────────────────┼─────────────────┼────────────────────────────┤
│ conv4_block6_out (Activation) │ (None, 14, 14, 1024)      │               0 │ conv4_block6_add[0][0]     │
├───────────────────────────────┼───────────────────────────┼─────────────────┼────────────────────────────┤
│ conv5_block1_1_conv (Conv2D)  │ (None, 7, 7, 512)         │         524,800 │ conv4_block6_out[0][0]     │
├───────────────────────────────┼───────────────────────────┼─────────────────┼────────────────────────────┤
│ conv5_block1_1_bn             │ (None, 7, 7, 512)         │           2,048 │ conv5_block1_1_conv[0][0]  │
│ (BatchNormalization)          │                           │                 │                            │
├───────────────────────────────┼───────────────────────────┼─────────────────┼────────────────────────────┤
│ conv5_block1_1_relu           │ (None, 7, 7, 512)         │               0 │ conv5_block1_1_bn[0][0]    │
│ (Activation)                  │                           │                 │                            │
├───────────────────────────────┼───────────────────────────┼─────────────────┼────────────────────────────┤
│ conv5_block1_2_conv (Conv2D)  │ (None, 7, 7, 512)         │       2,359,808 │ conv5_block1_1_relu[0][0]  │
├───────────────────────────────┼───────────────────────────┼─────────────────┼────────────────────────────┤
│ conv5_block1_2_bn             │ (None, 7, 7, 512)         │           2,048 │ conv5_block1_2_conv[0][0]  │
│ (BatchNormalization)          │                           │                 │                            │
├───────────────────────────────┼───────────────────────────┼─────────────────┼────────────────────────────┤
│ conv5_block1_2_relu           │ (None, 7, 7, 512)         │               0 │ conv5_block1_2_bn[0][0]    │
│ (Activation)                  │                           │                 │                            │
├───────────────────────────────┼───────────────────────────┼─────────────────┼────────────────────────────┤
│ conv5_block1_0_conv (Conv2D)  │ (None, 7, 7, 2048)        │       2,099,200 │ conv4_block6_out[0][0]     │
├───────────────────────────────┼───────────────────────────┼─────────────────┼────────────────────────────┤
│ conv5_block1_3_conv (Conv2D)  │ (None, 7, 7, 2048)        │       1,050,624 │ conv5_block1_2_relu[0][0]  │
├───────────────────────────────┼───────────────────────────┼─────────────────┼────────────────────────────┤
│ conv5_block1_0_bn             │ (None, 7, 7, 2048)        │           8,192 │ conv5_block1_0_conv[0][0]  │
│ (BatchNormalization)          │                           │                 │                            │
├───────────────────────────────┼───────────────────────────┼─────────────────┼────────────────────────────┤
│ conv5_block1_3_bn             │ (None, 7, 7, 2048)        │           8,192 │ conv5_block1_3_conv[0][0]  │
│ (BatchNormalization)          │                           │                 │                            │
├───────────────────────────────┼───────────────────────────┼─────────────────┼────────────────────────────┤
│ conv5_block1_add (Add)        │ (None, 7, 7, 2048)        │               0 │ conv5_block1_0_bn[0][0],   │
│                               │                           │                 │ conv5_block1_3_bn[0][0]    │
├───────────────────────────────┼───────────────────────────┼─────────────────┼────────────────────────────┤
│ conv5_block1_out (Activation) │ (None, 7, 7, 2048)        │               0 │ conv5_block1_add[0][0]     │
├───────────────────────────────┼───────────────────────────┼─────────────────┼────────────────────────────┤
│ conv5_block2_1_conv (Conv2D)  │ (None, 7, 7, 512)         │       1,049,088 │ conv5_block1_out[0][0]     │
├───────────────────────────────┼───────────────────────────┼─────────────────┼────────────────────────────┤
│ conv5_block2_1_bn             │ (None, 7, 7, 512)         │           2,048 │ conv5_block2_1_conv[0][0]  │
│ (BatchNormalization)          │                           │                 │                            │
├───────────────────────────────┼───────────────────────────┼─────────────────┼────────────────────────────┤
│ conv5_block2_1_relu           │ (None, 7, 7, 512)         │               0 │ conv5_block2_1_bn[0][0]    │
│ (Activation)                  │                           │                 │                            │
├───────────────────────────────┼───────────────────────────┼─────────────────┼────────────────────────────┤
│ conv5_block2_2_conv (Conv2D)  │ (None, 7, 7, 512)         │       2,359,808 │ conv5_block2_1_relu[0][0]  │
├───────────────────────────────┼───────────────────────────┼─────────────────┼────────────────────────────┤
│ conv5_block2_2_bn             │ (None, 7, 7, 512)         │           2,048 │ conv5_block2_2_conv[0][0]  │
│ (BatchNormalization)          │                           │                 │                            │
├───────────────────────────────┼───────────────────────────┼─────────────────┼────────────────────────────┤
│ conv5_block2_2_relu           │ (None, 7, 7, 512)         │               0 │ conv5_block2_2_bn[0][0]    │
│ (Activation)                  │                           │                 │                            │
├───────────────────────────────┼───────────────────────────┼─────────────────┼────────────────────────────┤
│ conv5_block2_3_conv (Conv2D)  │ (None, 7, 7, 2048)        │       1,050,624 │ conv5_block2_2_relu[0][0]  │
├───────────────────────────────┼───────────────────────────┼─────────────────┼────────────────────────────┤
│ conv5_block2_3_bn             │ (None, 7, 7, 2048)        │           8,192 │ conv5_block2_3_conv[0][0]  │
│ (BatchNormalization)          │                           │                 │                            │
├───────────────────────────────┼───────────────────────────┼─────────────────┼────────────────────────────┤
│ conv5_block2_add (Add)        │ (None, 7, 7, 2048)        │               0 │ conv5_block1_out[0][0],    │
│                               │                           │                 │ conv5_block2_3_bn[0][0]    │
├───────────────────────────────┼───────────────────────────┼─────────────────┼────────────────────────────┤
│ conv5_block2_out (Activation) │ (None, 7, 7, 2048)        │               0 │ conv5_block2_add[0][0]     │
├───────────────────────────────┼───────────────────────────┼─────────────────┼────────────────────────────┤
│ conv5_block3_1_conv (Conv2D)  │ (None, 7, 7, 512)         │       1,049,088 │ conv5_block2_out[0][0]     │
├───────────────────────────────┼───────────────────────────┼─────────────────┼────────────────────────────┤
│ conv5_block3_1_bn             │ (None, 7, 7, 512)         │           2,048 │ conv5_block3_1_conv[0][0]  │
│ (BatchNormalization)          │                           │                 │                            │
├───────────────────────────────┼───────────────────────────┼─────────────────┼────────────────────────────┤
│ conv5_block3_1_relu           │ (None, 7, 7, 512)         │               0 │ conv5_block3_1_bn[0][0]    │
│ (Activation)                  │                           │                 │                            │
├───────────────────────────────┼───────────────────────────┼─────────────────┼────────────────────────────┤
│ conv5_block3_2_conv (Conv2D)  │ (None, 7, 7, 512)         │       2,359,808 │ conv5_block3_1_relu[0][0]  │
├───────────────────────────────┼───────────────────────────┼─────────────────┼────────────────────────────┤
│ conv5_block3_2_bn             │ (None, 7, 7, 512)         │           2,048 │ conv5_block3_2_conv[0][0]  │
│ (BatchNormalization)          │                           │                 │                            │
├───────────────────────────────┼───────────────────────────┼─────────────────┼────────────────────────────┤
│ conv5_block3_2_relu           │ (None, 7, 7, 512)         │               0 │ conv5_block3_2_bn[0][0]    │
│ (Activation)                  │                           │                 │                            │
├───────────────────────────────┼───────────────────────────┼─────────────────┼────────────────────────────┤
│ conv5_block3_3_conv (Conv2D)  │ (None, 7, 7, 2048)        │       1,050,624 │ conv5_block3_2_relu[0][0]  │
├───────────────────────────────┼───────────────────────────┼─────────────────┼────────────────────────────┤
│ conv5_block3_3_bn             │ (None, 7, 7, 2048)        │           8,192 │ conv5_block3_3_conv[0][0]  │
│ (BatchNormalization)          │                           │                 │                            │
├───────────────────────────────┼───────────────────────────┼─────────────────┼────────────────────────────┤
│ conv5_block3_add (Add)        │ (None, 7, 7, 2048)        │               0 │ conv5_block2_out[0][0],    │
│                               │                           │                 │ conv5_block3_3_bn[0][0]    │
├───────────────────────────────┼───────────────────────────┼─────────────────┼────────────────────────────┤
│ conv5_block3_out (Activation) │ (None, 7, 7, 2048)        │               0 │ conv5_block3_add[0][0]     │
├───────────────────────────────┼───────────────────────────┼─────────────────┼────────────────────────────┤
│ global_average_pooling2d      │ (None, 2048)              │               0 │ conv5_block3_out[0][0]     │
│ (GlobalAveragePooling2D)      │                           │                 │                            │
├───────────────────────────────┼───────────────────────────┼─────────────────┼────────────────────────────┤
│ dense (Dense)                 │ (None, 256)               │         524,544 │ global_average_pooling2d[… │
├───────────────────────────────┼───────────────────────────┼─────────────────┼────────────────────────────┤
│ dense_1 (Dense)               │ (None, 3)                 │             771 │ dense[0][0]                │
└───────────────────────────────┴───────────────────────────┴─────────────────┴────────────────────────────┘
 Total params: 24,113,027 (91.98 MB)
 Trainable params: 14,975,491 (57.13 MB)
 Non-trainable params: 9,137,536 (34.86 MB)
Epoch 1/30
68/68 ━━━━━━━━━━━━━━━━━━━━ 0s 646ms/step - accuracy: 0.3427 - loss: 1.1740 
Epoch 1: val_loss improved from None to 1.08956, saving model to outputs/resnet50/best_model.h5
…
